reinforce/models/reinforce_MountainCarContinuous-v0_latest.pth (torch, 271360 bytes, 5 tensors)

fc1.weight f4 [128, 2]
00000000: 8abd 5e3f a882 af3f f63e 703f 391c b33f
00000010: a971 1e3f 532e 20bf 9c74 6a3e de6c bd3e
00000020: 7343 66bd 69bf 423f 5f53 003f be98 61be
00000030: e02f 653e b778 0ebf 9b26 123f ce7b f1be
00000040: 18d7 fc3d 2e37 a3bd 2c99 3bbe b451 1fbe
00000050: 2653 e0bd 4756 9e3f a892 193e cd66 2e3f
00000060: f511 933d 5d1c 75bd b8ee a13d 373b b83f
00000070: 92cb 6dbe 2fdc 023f db4a 873f 337e 2240
00000080: 92dc 5e3f 4eec 1340 56a5 e93e 70f5 a23d
00000090: 3bc4 0cbe b27c 41be bbd0 213f 910b 1bbf
000000a0: 7383 c13e ad5d 27bf a026 a33d 76de f53e
000000b0: 19ef 013e aac0 203f 0489 233f 12af 0940
000000c0: 80de d4bb 2548 1c3f 1c23 8d3e 5026 c0c0
000000d0: 2e17 fd3c c100 27bf 0826 a3bd 0b93 6f3e
000000e0: 184f b6bd 4b1e 253f 083d e03e fd37 0c40
000000f0: d05c 18be e07c 94bd 6424 5e3d 4ccc 25bf
00000100: 24dd 32be d3db f13e d48f 133f ab47 8740
00000110: 7c02 443f d6fb 4440 3023 07bd 65c4 093f
00000120: 6e94 273f ec89 1a40 a266 d33d 949f d3c0
00000130: ec6c 853f da87 2740 a7c9 60be d30c 2f3f
00000140: a7dc b9be 2009 1a3d 3550 0a3e 056d b4bd
00000150: 24bd 86bd d0cb 183f 2629 ba3e 57e2 303f
00000160: 9dc1 373f af5e 1b40 9bc0 1c3f ae07 3040
00000170: 31b9 b63e 8b3d c640 66f9 1e3f 76d9 993f
00000180: 2178 25be 1620 8e3e 09c7 dd3e cc0e 8440
00000190: 6874 4d3e b77d 323f 30c2 4f3d 5941 0f3f
000001a0: 79d1 953c 2fe6 6e3f 1ad2 f63e 38d7 4ebe
000001b0: 90a4 aabc dfb1 293f 0299 2dbe e02b 913f
000001c0: 537b 5a3f 7cee 0440 0581 163e 6546 e340
000001d0: dd9e 1b3f f777 22bf 45f5 03bf 474b 123f
000001e0: 4217 f73e ec5d eebe ac5d 783e 991b 143e
000001f0: c70c 143f f213 1540 5ee1 f4be 24da 79be
00000200: 18ac 96be 89ca 173e 60aa 73bd f234 a03e
00000210: 038c a23e fce2 dd3c a880 203e c0a0 603c
00000220: 2ee0 273f 5241 c93f 94dc 263e c004 7b3c
00000230: 00c0 5cbb ff52 9cbe 1001 bb3d 92db 903e
00000240: d7ab eabe 395f 93c0 a249 e23e 686a 943d
00000250: c74b 05bc 5230 2bbf 1cf8 843e abfb 163e
00000260: f821 87bd 600a 833e 9a0a 81be 74df e3bd
00000270: 9547 313f 546e 9abe c03f f4be 6007 64be
00000280: 5fc2 c9be fcfb ebbe c1c8 223f 47fe 113f
00000290: 6407 5e3e 4cb2 393e 00f4 5c3b d40c 5cbe
000002a0: 54ec 8b3f 229b fc3f d3f1 193f cdfb e73f
000002b0: d973 4f3c a167 423f 18c9 8dbe 6135 2b3f
000002c0: 7176 4d3e e6b2 be40 211e 4d3e 7163 d440
000002d0: aaf9 e2be adf6 36be 4255 a7be 47bb 1abf
000002e0: 2a80 bebd 462d 803f 1724 cc3e d93c a53b
000002f0: 0975 023e 2f74 933d 70e4 34be e09b 09be
00000300: d29b 9f3e a7ac 94be 70ef 9dbe e993 003f
00000310: af2e 2cbe e29b febe 6dc4 e7be 40fe 323e
00000320: 509e 663e 40a0 34bd d1c9 03be 8bc9 153f
00000330: a5b2 243f f5aa dbbf e571 6c3e 27c0 e040
00000340: f094 aebd 30bc 03bf 8601 b43e 60e9 a1bc
00000350: 64b8 333e 80dc 0bbf 6ffe 683f 18fd df3f
00000360: 15d7 cabe b0e2 433e bd2b 033f 66fc 7cbe
00000370: bc2c db3c 40ef 213e f2ce 893f e14e cb3f
00000380: 6067 e73e c36b 5140 af13 1b3f 9dea ddbe
00000390: 2b2e 6d3f 04e4 ac3f 4c10 923f 3b73 4640
000003a0: 42aa 243d 2e66 2b3f 3591 da3e e2f6 e63e
000003b0: 1358 233f 9730 1940 6807 2d3e 2cf3 bd40
000003c0: bb77 76bc 05ed 653e 75f7 893f 8156 eb3f
000003d0: b054 263e 01ce 033f 9cc5 043f c92e 893f
000003e0: 0c86 bfbe a303 673f 2f09 1dbe 2fef 003f
000003f0: 0bef 93be 4231 85be 5be3 83be c3d1 0c3f
0.87007964 1.3711748 0.9384607 1.3992988 0.6189218 -0.62570685 0.22896045 0.36997122
-0.05621667 0.7607332 0.50127214 -0.22030923 0.22381544 -0.55652946 0.5709016 -0.47164768
0.123457134 -0.07969509 -0.18320149 -0.15558511 -0.10953359 1.237008 0.14997351 0.6812561
0.071811594 -0.059841502 0.0790686 1.4393071 -0.23222187 0.51117224 1.0569719 2.5389526
0.87055314 2.311298 0.45633954 0.0795697 -0.13746731 -0.18895224 0.6320912 -0.60564524
0.377956 -0.6537731 0.079663515 0.48021287 0.12688865 0.6279398 0.63880944 2.1513104
-0.0064962506 0.61047584 0.2756585 -6.004677 0.030894842 -0.65235525 -0.07966238 0.23395936
-0.08901805 0.6449935 0.43796563 2.1909173 -0.14879155 -0.072503805 0.054233924 -0.6476486
-0.17467171 0.47238025 0.5764134 4.2274985 0.7656629 3.0778708 -0.03299254 0.538153
0.6546086 2.414668 0.1032231 -6.6132298 1.0423865 2.6176667 -0.21951924 0.68378943
-0.36301157 0.03760636 0.13507159 -0.08809856 -0.065790445 0.59685993 0.3635952 0.6909537
0.71779805 2.427654 0.6123139 2.7504687 0.35688165 6.1950126 0.620993 1.2019489
-0.16159107 0.27758855 0.43315914 4.1268063 0.20063937 0.69723076 0.0507223 0.5595909
0.01828836 0.9331998 0.4820717 -0.20199287 -0.020830423 0.66287035 -0.16952899 1.1341515
0.8534443 2.077056 0.14697655 7.102343 0.6078928 -0.634643 -0.51546127 0.57146114
0.48259932 -0.46556032 0.24254483 0.14463653 0.57831997 2.3293424 -0.47828192 -0.2439962
-0.29428172 0.14823355 -0.059488654 0.31290394 0.31747445 0.027085774 0.15674078 0.013710201
0.65576446 1.5723059 0.16295081 0.015320957 -0.0033683777 -0.3053207 0.09131062 0.2829252
-0.45834228 -4.605374 0.44196802 0.07246858 -0.0081357425 -0.66870606 0.25970542 0.14744441
-0.06598276 0.25593853 -0.252034 -0.11126605 0.6924985 -0.301623 -0.47704887 -0.22268438
-0.39406106 -0.46090686 0.63587576 0.5702862 0.21682507 0.18134421 0.0033714771 -0.21489269
1.0931497 1.9734843 0.6013462 1.8123719 0.012661898 0.75939375 -0.27692485 0.66878325
0.20064713 5.959338 0.20031025 6.637139 -0.44331104 -0.17867537 -0.32682234 -0.6044201
-0.09301789 1.0013816 0.39871284 0.005042654 0.12739958 0.07199895 -0.17665267 -0.13438368
0.3117357 -0.29037973 -0.3084674 0.50225693 -0.16814683 -0.49728304 -0.45267048 0.17479801
0.22521329 -0.04409814 -0.12869956 0.58510655 0.6433509 -1.7161547 0.23090322 7.023456
-0.08524501 -0.51459026 0.35157412 -0.019764602 0.17550808 -0.5463333 0.91013235 1.7499113
-0.3961722 0.19129443 0.51238614 -0.24705657 0.02675473 0.15813923 1.076628 1.5883447
0.45196056 3.2722023 0.6057691 -0.43343058 0.9264857 1.3507085 1.1411223 3.100783
0.040201433 0.6695279 0.4268891 0.45110232 0.63806266 2.3935907 0.16897357 5.935934
-0.015043194 0.22453697 1.0778643 1.8385774 0.16243243 0.5148621 0.5186403 1.0717403
-0.37406957 0.90239924 -0.15335535 0.50364965 -0.28893313 -0.26014143 -0.25759396 0.5500757

fc1.bias f4 [128]
00000000: 261a 65be a996 6bbe db1f 02bf 320e c4be
00000010: 344b c6bd 2e64 74bd 7b19 5dbe eeb5 c7be
00000020: f4f8 65bd faa4 33bf 019e 26be 84a8 38be
00000030: 6b57 d0bd eb81 74bd 8302 21bf 66d8 52be
00000040: d453 4bbe b39b 2cbf 85b6 89be 8649 34bf
00000050: 63de eabe 10c1 5abd d18d ffbd 5c1b 47be
00000060: 2dff 18bf ddb1 b93e a6fb 27be 691c 7ebe
00000070: d87c 0cbe e678 16be f4c9 3cbe b2c6 8bbd
00000080: b2db a4be 3fb4 c9bd ebf2 3ebd e046 30bf
00000090: 5113 58be 66c5 c33e 03da 65be 37a0 bcbe
000000a0: 250b 1bbf 8dfe a2bd 7799 0ebe 40f1 92be
000000b0: 3500 9fbe 53c0 7cbe 07f0 643e bfa2 2cbe
000000c0: 3e44 a2be 5589 5b3e a749 09bf 1296 83be
000000d0: a8c8 53bd f944 16bf 3609 96bd e2e5 9ebe
000000e0: 221d 39be ba46 aa3c e01b 1fbf 1171 21bf
000000f0: decc b6be 226b 93bd c0f9 2fbe 0110 17bf
00000100: d394 babe 8a78 fdbe 73ec 05be f5d9 32bf
00000110: e9ba 0cbe 749a 1ebf 1e92 b1be 30d8 a9bd
00000120: 5936 57be 5cf4 72be 4d01 b8bd 154b 25be
00000130: ec76 47be 7d54 aabe 4e24 b3be ee47 2fbf
00000140: d6ce 01bf ca1b a4be 98f4 24be 7dea c3be
00000150: 08c9 60be c590 3abe c0df 45be 7dc1 bcbe
00000160: f20c 52bc 6acb 1e3c 49c0 14bf defb fbbe
00000170: e0e6 96be 18a9 febe 543f acbd b587 85be
00000180: 646c 5ebe 814f 0abf 276f a1be 3293 2ebf
00000190: f9f6 34bf 9d05 2fbe bf09 be3e 8550 b43d
000001a0: 578e 01bf 99c9 b4be cf5a 25bf 0abc 48be
000001b0: bc2d 13bf f127 16bf d395 b0bd 4b1e 72be
000001c0: 9444 e33c 369d 2abf f6c0 8fbe 1304 b2bd
000001d0: 7b78 64be 0a8e 59be 49ac 67be aa25 d7bc
000001e0: ee07 c0bd 24bc 61be 54d8 d5be 0392 59be
000001f0: 6ebe f1be e76e a2be 74cf b8be 3239 26bf
-0.22373256 -0.23006691 -0.5082986 -0.3829208 -0.096823126 -0.05966585 -0.21591751 -0.3900599
-0.056145623 -0.7017361 -0.16271211 -0.18033034 -0.10172924 -0.059694212 -0.6289446 -0.20590362
-0.19856197 -0.6742508 -0.26897064 -0.7042469 -0.45872793 -0.053406775 -0.12478221 -0.1944403
-0.5976437 0.3626851 -0.1640459 -0.24815525 -0.13719499 -0.14694557 -0.18436414 -0.068250075
-0.32198864 -0.09848832 -0.046618383 -0.68858147 -0.21101119 0.3823654 -0.22446446 -0.36840984
-0.6056388 -0.07958708 -0.1392573 -0.28699684 -0.31054845 -0.24682741 0.22357188 -0.16858958
-0.3169269 0.21439107 -0.5362801 -0.25700432 -0.051705033 -0.58698994 -0.073259756 -0.31034762
-0.1807752 0.020785678 -0.6215191 -0.6306315 -0.35703176 -0.07198168 -0.17185116 -0.59008795
-0.3644167 -0.49506027 -0.1307848 -0.69863826 -0.13743176 -0.61954427 -0.3468179 -0.082931876
-0.21016826 -0.23726028 -0.08984623 -0.16141923 -0.19478959 -0.33267584 -0.34988636 -0.6846913
-0.5070623 -0.3205245 -0.1610893 -0.38264838 -0.21951687 -0.18219288 -0.19323635 -0.3686637
-0.012820469 0.009692052 -0.58105904 -0.49215597 -0.2947302 -0.49738383 -0.084105164 -0.260801
-0.21721035 -0.54027563 -0.31530115 -0.6819335 -0.7068935 -0.17091985 0.3711681 0.088044204
-0.5060782 -0.35310057 -0.6459169 -0.19602981 -0.5749166 -0.58654696 -0.08622327 -0.23644368
0.027742662 -0.66646135 -0.28076905 -0.08692183 -0.22311585 -0.2124559 -0.22624315 -0.026263077
-0.093765125 -0.22044426 -0.41766608 -0.21247105 -0.472156 -0.31725237 -0.36095774 -0.64931023

fc2.weight f4 [512, 128]
00000000: cc4e b03d 38cc 253e 6910 adbd 00c7 f03c
00000010: a932 9bbc cfc0 a1bd 6861 ec3c 6430 97bc
00000020: 4203 0dbe c43a 8a3c 013d 86bd b74f a03d
00000030: 431f 8cbc b247 e3ba b81b 8cbc 8f73 eebd
00000040: 3c9e c1bd dc84 f13c 20a1 09be e691 b1bd
00000050: 4048 c0bb 8627 76bd ad93 08be 942c efbd
00000060: 9a5b 6abd 6b56 4abd 5f06 d6bd 0248 ecbb
00000070: 808b 86bb 151b d8bc 85e5 8b3d de3c b3bd
00000080: 9c9b fd3c 5163 dfbd 8388 25be c6f4 5c3d
00000090: 0b4f 5fbd a42d 03be ea4e 7a3d ed60 b9bd
000000a0: f58e a63d 52b6 1dbe f145 86bd 28d0 b0bd
000000b0: add4 31be 91aa 54bd 5560 bebd 4f11 083e
000000c0: 3f0a 17be 77e8 debd 8fb8 96bd b6f1 eebc
000000d0: ceae 10be 2951 9a3d a048 3b3c a908 38bc
000000e0: b0a9 09be 7471 95bd 7814 35bc aaef 82bd
000000f0: 81e1 9a3d e65f 28be 87e8 f6bc 5ac8 efbd
00000100: e4ba 90bd 645d d0bc 02a1 64ba 3542 8c3d
00000110: b92b dbbd 88df 3fbc c0b9 5a3c 221d 133d
00000120: 0b07 23be fa22 83bd d786 b1bd c157 0fbd
00000130: 0221 533d 4502 12be 00a5 c23b 314b b43d
00000140: 18f8 41bc c74c 8b3d 65bc 47bd c0de d1ba
00000150: c056 e9bd ecf4 1dbe 7bef 8cbd f03b 92bb
00000160: b89c 08be cee3 05be 0044 2a3b c05d a8bd
00000170: b331 5dbd 9d4e 89bd cbb3 1cbe d076 48bc
00000180: bcd4 9c3c f26f 1c3d cd07 9d3d 915f a13d
00000190: fc3d 9a3c b6e5 15be 586b 96bd 0287 b4bd
000001a0: 7252 4abd fcff 20bd cf50 903d 30e1 2bbc
000001b0: b8b9 89bc 0c1c 9bbc edd0 c2bd fbdd a83c
000001c0: f3f8 c6bd 8fac 8f3d 3e8f ec3c 4c50 a5bd
000001d0: f3c8 8539 f0b2 c1bb cc72 c5bc 2ed6 a0bc
000001e0: 206f 16be 7921 b4bd 93b2 68bd e9cb 10bd
000001f0: 0b04 56bd d035 d7bd 24cd 0cbe 388d 783c
00000200: 6821 e2bc 9131 0a3b cc33 3dbd e00d 7ebc
00000210: 37ba 76bc 8e35 e1bd 92fd f83d abc5 933d
00000220: 11fb dbbd a01a 323b 9137 b6bc 5991 a03d
00000230: 5d03 33bd f958 0bbe ed52 8ebd 9c26 0ebd
00000240: 4c23 413c 68f6 72bc bd1b aebd e0ef 363b
00000250: b2ec 4f3d 960b 85bd 2414 3dbc 3054 abbd
00000260: f240 6c3d e80a e6bc b858 92bb 0b20 ffbc
00000270: c66a 613d 987b 9dbd 4563 853d e2a8 f93c
00000280: 4849 2bbe 9504 523d 0db9 f1bc 0006 b2bc
00000290: fe45 bdbd 364e 3abe 79dd 143d 17c8 7dbd
000002a0: 2e71 e3bc 6561 09bd 841c 69bc a611 17bd
000002b0: b7b5 e63d aef4 cbbc 2d92 3ebc 346a 96bc
000002c0: c29b 0ebe dcf0 e93c c0f1 0b3c 44c7 8dbd
000002d0: c814 7b3c 2c51 94bd bd40 f8bb ce86 51be
000002e0: bc67 ce3d fe21 953d 328a 733d 69e1 b13d
000002f0: c42c 8bbc 20f5 06be a5a4 c8bd 214e b3bc
00000300: 2f6e 44bd 476e 78bd 6f52 f6bd 3806 373c
00000310: 83e7 053d 7ffc acbd 5079 f8bc 34c1 9bbd
00000320: e48b 34bd 69b3 21bd 1051 73bd 6ec0 f5bd
00000330: 1f54 a43d 6b42 4abe a027 adbb 0ffe 01bd
00000340: 000d 25bd d093 2a3c 7a12 34bd fe30 9fbd
00000350: 7595 ac3d 34e5 5abd 4ada c0bc 3214 88bd
00000360: f9b1 2bbd 363c 023d 3074 65bc 90f9 babc
00000370: c482 313b 49a1 2e3e d3f8 45bd 78d7 66bc
00000380: 10e3 f13c de0f 1a3d 13e5 3bbc 50a8 0fbd
00000390: 00ef a13b e537 5d3c 5fdf 0bbd 5579 c6bc
000003a0: 2a82 3e3d 9034 fabc 2b7f a23d 3d00 883d
000003b0: 78fd 043d ef0c 2bbd b3fb f43b 88b6 8c3d
000003c0: 376a 933c 009a b03c 86b8 863d e966 a63c
000003d0: 6f32 f3bd 8c54 253e 8f39 84bd 3276 69bd
000003e0: 4eb7 bb3b cd61 253e 80a3 9b3b 52a5 37bd
000003f0: 2c44 cabc 8b27 4cbc 3e82 3abd 604f 7bbb
0.08608779 0.16191185 -0.084503956 0.029391766 -0.018945055 -0.078981034 0.02885504 -0.018455692
-0.13770774 0.016873725 -0.06554604 0.078277044 -0.01710475 -0.0017340092 -0.017103061 -0.11643135
-0.09454009 0.029482298 -0.1344037 -0.08670406 -0.005867988 -0.060096286 -0.13337584 -0.116784245
-0.057216264 -0.04939882 -0.10450434 -0.0072107324 -0.004105985 -0.026380101 0.06830887 -0.08751844
0.03095799 -0.10907615 -0.16165356 0.05394437 -0.05451874 -0.1281038 0.061110415 -0.0905169
0.08132736 -0.15401581 -0.06556309 -0.08633453 -0.17366286 -0.051920477 -0.092957176 0.13287853
-0.14750002 -0.10884183 -0.073594205 -0.029167991 -0.14129183 0.07535011 0.011430889 -0.0112325335
-0.13443637 -0.0729703 -0.011052243 -0.063933685 0.07562543 -0.16442832 -0.030140175 -0.11708136
-0.070668966 -0.025435157 -0.0008721502 0.068485655 -0.10701699 -0.011711009 0.01334995 0.035916455
-0.15920655 -0.064031556 -0.08668297 -0.034995798 0.05154515 -0.14258678 0.0059400797 0.08803404
-0.011838935 0.068017535 -0.04876365 -0.0016011819 -0.113934994 -0.15425462 -0.06881615 -0.0044627115
-0.13341033 -0.13075182 0.0025980473 -0.082210064 -0.054002475 -0.067044474 -0.1530296 -0.012235358
0.019144408 0.038192697 0.076675035 0.07879556 0.018828385 -0.14638409 -0.07344693 -0.08814813
-0.049395032 -0.039306626 0.07046663 -0.010490701 -0.01681219 -0.018934272 -0.09512506 0.020613661
-0.09715452 0.07015335 0.028876897 -0.08071956 0.00025517456 -0.0059112236 -0.024102591 -0.019633379
-0.14690828 -0.08795447 -0.056810927 -0.035350714 -0.05224995 -0.10508311 -0.1375013 0.015170388
-0.02760382 0.0021086673 -0.046191975 -0.015506238 -0.0150590455 -0.10996543 0.1215774 0.072154365
-0.107412465 0.0027176514 -0.022243293 0.07840223 -0.04370438 -0.13608159 -0.069494106 -0.03470479
0.011788201 -0.014829256 -0.085013844 0.0027913973 0.05076284 -0.064963505 -0.011540446 -0.08365667
0.057679124 -0.028081372 -0.0044661425 -0.031143209 0.055033468 -0.07689589 0.06513075 0.030476037
-0.16727173 0.0512739 -0.029507184 -0.021731377 -0.092418656 -0.18193898 0.036344025 -0.0619584
-0.02776393 -0.03354015 -0.01422799 -0.036882065 0.11265128 -0.024896946 -0.011631531 -0.018361188
-0.13926604 0.028557234 0.008541524 -0.069227725 0.015324779 -0.07242045 -0.007576077 -0.2046158
0.100783795 0.07281874 0.059457965 0.08685572 -0.01698912 -0.13179445 -0.097970285 -0.02188784
-0.04795664 -0.060652044 -0.12027442 0.011170916 0.03269149 -0.08446597 -0.030331284 -0.0760521
-0.044078723 -0.03947774 -0.05940348 -0.11999594 0.08023857 -0.19751899 -0.0052842647 -0.03173643
-0.0402956 0.010411218 -0.043962933 -0.077730164 0.08426944 -0.05344124 -0.023541588 -0.06644477
-0.041917775 0.031795703 -0.014004752 -0.022824079 0.0027086 0.17053713 -0.048333 -0.014089458
0.029527217 0.03761279 -0.01146819 -0.035072625 0.004941821 0.013502096 -0.03414857 -0.024227777
0.046510853 -0.030542642 0.079344116 0.066406704 0.03246829 -0.04176038 0.007476294 0.068707526
0.017994983 0.021557808 0.06578164 0.020312743 -0.11874854 0.16145533 -0.06456291 -0.056997485
0.0057286387 0.1615059 0.0047497153 -0.044835396 -0.02469071 -0.0124606 -0.045534365 -0.0038346872

fc2.bias f4 [512]
00000000: 2e0c bdbd 47f7 e0bd 5044 d9bd 2e50 22bc
00000010: 6292 9dbd e441 cbbe 64e9 82bd 7a12 0fbe
00000020: cea2 b2bd dad2 64be 2d89 39be 224f ebbd
00000030: 637c d5bd 5d08 bcbd bf3c 60bd 9e7b 1cbd
00000040: 3c5b 2fbe b522 343d 4e4a bcbd d248 69be
00000050: 6b21 c3bd 3706 6ebe deba 5abd ec1b 6cbe
00000060: 0e18 1bbe 640a 16bd 7096 e2bd 15e2 9ebd
00000070: b381 1abe 52d3 48bd 9117 50bd ba45 50be
00000080: 0ef1 debc f11a 2fbd 7eaf b1be b71d 07be
00000090: 9727 d8bd cdd2 21be bd31 dabd d0d4 98bd
000000a0: fc90 8abd af1d debb a730 7bbe 2e47 29bd
000000b0: fb1e 9abd a96a 1ebe 46b1 1c3d fee2 28bd
000000c0: be4f 2cbd 1568 a2bd 3819 f7bc c796 87bc
000000d0: f1cf 53bd 281a 90bd 38bc 8bbd df61 01be
000000e0: 7a10 a4bd 547e 00be d602 0ebe 056e 18be
000000f0: 29e4 2abe 9ca3 32be 880c 28bd 82be 57bd
00000100: ae76 8ebd 85db abbd 9a7b c0bd fab2 9dbd
00000110: bd56 28bb 96b6 9fbd 1393 29be bd4a aabd
00000120: b327 48be 9879 973a ee28 a8bd 2c3d d3be
00000130: 41ba 81bd 1e18 1cbc 4224 6fbc 7102 f0bd
00000140: 490c d4be cfaa 7abb c249 2fbe b52d 16be
00000150: 04ab 7dbd d7cd b8bd 011d 20be 67a5 89be
00000160: c3cd acbd 1198 44bd cff7 8cbd 1575 a8be
00000170: 507a 06be 98ab 75be 550c b9bc 65d1 84bd
00000180: b9e9 66bd 97da 69be 7de2 84be 02da d1bd
00000190: 59c5 98bc 8bf8 05be 4986 33be 4fbb 3cbe
000001a0: 4f48 fbbd b1e1 d4bd d976 62be c04d 0ebe
000001b0: 841e 143e 9369 d1bc 495a 34bd 88cb 42be
000001c0: 4a03 e8bd 887e f9bd d02f 82be d205 01bd
000001d0: c418 57be cb68 12be 6bc5 82bb 7c5a b3bd
000001e0: a683 6fbd f337 29be 7221 98bd 0910 9dbd
000001f0: 0b3a eabd e82b aabd 3cb6 09be ab79 87be
00000200: f09e 8bbe 1caf 49bc 2f54 83bd 2862 d4bc
00000210: 55cc 7cbc 6084 d2bd 1564 7bbe f002 68be
00000220: 713f 58be dab9 33bd b357 03be 72eb afbd
00000230: 1f7a 10bd 6f17 e7bc 0ada a9bd d5c5 a2be
00000240: 4a82 a2be d418 84bd 3f66 debd 55ee adbd
00000250: 1ad2 c2bd d50e 42be 9220 8ebb 8e8e d1bd
00000260: 9b21 fcbd 5afd 7f3e c58e 8dbd ca0a 8dbd
00000270: aa2f 32be 84dd 8cbd d8a1 afbd 6e00 febb
00000280: 1fe0 01be 7ddf 20be a739 5abe c15a 48be
00000290: 108e e2bd 4695 19be 8b73 80bd 9f7d 4dbe
000002a0: 0dd7 e2bd a278 98bd bdda 15be 8e6c 69bd
000002b0: 4e6f 05be 4f06 bbbe f13e 60be 11d3 aabd
000002c0: 0f40 cdbd c9a0 9dbe c6b1 29be 68b9 a6bd
000002d0: c675 e5bb 3dad 06be 2a1b 103e 9139 20be
000002e0: a326 97bd c98f 4cbd b39a 68bd 41e9 57bd
000002f0: 3342 2abe 8ed2 2dbe 3c03 f8bd 5423 c8bd
00000300: 43d6 cfbd 673a 19be 39cf 5fbc f9d1 88bd
00000310: 41e6 1fbe 189a 91bd 4127 a7bc 98de eabd
00000320: cf89 59bd 04bc 83bd 5a29 35be f159 a8bd
00000330: 649a f8bd fd5b acbe d9a0 27be 48af d5bd
00000340: f42d d0bd 4c1f d3bd 227e 00be 5f99 8fbd
00000350: 8f09 3fbd eeed 05be 275a 8dbd 7a52 fdbd
00000360: e41b 0abd e474 8cbc cb85 a6bd 5797 51be
00000370: 136b 85bd be6f ddbd db81 59bd b907 bebd
00000380: db42 21bd b0fb 30be c08e 87bd 84bf 82bd
00000390: 6ca1 4ebe 5425 09bd 736b 09be 2f2c 88bd
000003a0: 1836 b2bc 3991 27be d72b b1bd 25b2 8ebd
000003b0: b986 96bd 7e05 43be 76a0 a8bd ec0d 58be
000003c0: 7031 95bd 772e 67bc 7dfc 8fbe 0055 4cbe
000003d0: dab0 3abe f633 f9bd 7cd9 b3be 7afa 753d
000003e0: 366c c8bd 7895 4ebe 66ce a9bd 1a7b e5bd
000003f0: 7c9d 7abd 400e ecbd ba05 81be 3d58 91bd
-0.09230839 -0.109846644 -0.10608733 -0.009906812 -0.07693936 -0.39698708 -0.06392172 -0.13971892
-0.08722459 -0.22346058 -0.18118735 -0.11489703 -0.104241155 -0.09181283 -0.054745432 -0.038203828
-0.17124647 0.04397841 -0.0919386 -0.22781685 -0.09527858 -0.23244558 -0.053400867 -0.23057526
-0.15145895 -0.036631003 -0.1106385 -0.077579655 -0.15088539 -0.049029656 -0.050803725 -0.20339099
-0.027214553 -0.042750303 -0.34704202 -0.13194929 -0.10554426 -0.1580307 -0.10654018 -0.07462466
-0.06765935 -0.006778441 -0.24530278 -0.041327648 -0.0752544 -0.15470375 0.038255 -0.0412321
-0.042068236 -0.07930008 -0.030163392 -0.016551388 -0.05171198 -0.07036239 -0.06823009 -0.12634991
-0.08010955 -0.1254819 -0.1386827 -0.14885719 -0.16688599 -0.17445225 -0.041027576 -0.052671917
-0.0695623 -0.083914794 -0.09398575 -0.07700153 -0.0025686466 -0.077984974 -0.1656001 -0.083150364
-0.19546394 0.0011556624 -0.08210932 -0.41257608 -0.06334353 -0.009527234 -0.014596047 -0.11719216
-0.41415623 -0.0038248783 -0.1711798 -0.14665873 -0.06193067 -0.09023636 -0.15636064 -0.26884004
-0.084376834 -0.047996584 -0.06883203 -0.32901827 -0.13132596 -0.23991239 -0.022588888 -0.06485251
-0.05637524 -0.22837292 -0.25954047 -0.1024666 -0.01864879 -0.13083093 -0.17531694 -0.18430828
-0.12269651 -0.1039461 -0.2211565 -0.13896847 0.14464766 -0.025563037 -0.044031415 -0.19022954
-0.11328752 -0.12182337 -0.25427103 -0.03149969 -0.21005541 -0.14297788 -0.003990819 -0.08757493
-0.05847516 -0.16525249 -0.07428254 -0.07669074 -0.11436852 -0.08309156 -0.13448423 -0.26460013
-0.27269697 -0.012309816 -0.06412541 -0.02592571 -0.015429576 -0.10279155 -0.24549897 -0.2265737
-0.21117951 -0.043878414 -0.12826423 -0.085898295 -0.035272714 -0.028209416 -0.08293541 -0.3179156
-0.31740028 -0.06450048 -0.10859346 -0.08492724 -0.0951273 -0.1895097 -0.004337379 -0.10232268
-0.12311097 0.2499899 -0.06911997 -0.068868235 -0.17400995 -0.06878188 -0.08575791 -0.007751516
-0.12683152 -0.15710254 -0.21311055 -0.1956587 -0.110622525 -0.1499835 -0.06272038 -0.20067452
-0.11076174 -0.07444884 -0.14634223 -0.05698829 -0.1303074 -0.3652825 -0.2189901 -0.08341039
-0.10021984 -0.30786732 -0.16571721 -0.08140832 -0.007002565 -0.13152023 0.14072862 -0.1564696
-0.07380416 -0.04994181 -0.056788158 -0.052712683 -0.16626815 -0.16974851 -0.12109992 -0.09772363
-0.10148289 -0.14963685 -0.013660246 -0.06680674 -0.15615179 -0.07109469 -0.02040446 -0.11468238
-0.05310994 -0.064323455 -0.17691556 -0.0822028 -0.12138823 -0.3366393 -0.16369952 -0.10433823
-0.10165015 -0.10308704 -0.12548116 -0.07011675 -0.046639975 -0.13079044 -0.06901961 -0.12369247
-0.033718005 -0.017145582 -0.08130988 -0.20467888 -0.065145634 -0.10812329 -0.053102355 -0.09278817
-0.0393704 -0.17283511 -0.06619024 -0.06384185 -0.20178765 -0.033482864 -0.13419895 -0.06649052
-0.02175431 -0.16363992 -0.0865094 -0.06967572 -0.07349915 -0.19045064 -0.082337305 -0.21099061
-0.0728482 -0.014110199 -0.2812232 -0.199543 -0.18231526 -0.12168114 -0.35126865 0.060053326
-0.097862646 -0.20174205 -0.082913205 -0.112051204 -0.061185345 -0.115261555 -0.25199682 -0.07096908

mu.weight f4 [1, 512]
00000000: 7e69 2ebd 5ab8 a3bc 2567 493d 5fee 6c3d
00000010: a374 dbbd 1d86 1d3e d898 af3b 01db 30bc
00000020: 5620 c63c 0641 053e f3fe 0dbe 6d10 0f3d
00000030: 6859 223d 10df 0b3d 4f63 6b3c 03ed eabd
00000040: 2e38 bebd c0c4 b73e 9912 f13e e992 183e
00000050: 7f2e 1b3d a2c5 733c 5029 c43b 1490 b83c
00000060: ed67 f83b 0b87 c4bc da15 993c 2aa8 373e
00000070: f37a adbd 5f28 54bc 75b9 c43c d6fe 423e
00000080: 3320 0a3c 5df1 3e3c 80a1 ad3e fbee d5bd
00000090: 09ed 013e 1a70 d1bc f378 dcbc 2d4e 0a3d
000000a0: 1787 b23c 8ae4 c83c f525 b9bd 80a2 16bd
000000b0: 3cee 883d 1c4b 6d3e e080 be3e f1b0 8d3c
000000c0: 1bba 3e3d b283 03be 1113 f13a 556f f93c
000000d0: 7204 e03b 2056 78bb 25d4 1e3d df77 5a3d
000000e0: d7b0 3e3d 7519 01be fb27 ca3c 6a57 3dbe
000000f0: c3bd 66bd b69b e03e da74 f8bc b353 293d
00000100: 79f7 00bd c893 cb3d abe7 cb3c 02e6 54bd
00000110: 500f 543d 714a fa3d 8f30 893e ee10 963e
00000120: 22bd 843e 1607 f63c 3587 93bb 5fdf 59be
00000130: 723a 17bd a11a 083d 4549 423d 7f9f 88bd
00000140: 768c 6d3e 138e 8b3c a4c1 dc3d dfca 373d
00000150: 3c1c dbbc 0651 3ebd 17b6 003e 280f d43c
00000160: cb1a 303d 3190 893c ae8d ac3c faf6 843e
00000170: 7588 04bc bce9 433e 07f2 0b3d 3330 263d
00000180: 0c94 a83c 9d09 023e 6f77 703e 4130 443c
00000190: 06af 09be a1a8 9f3c a760 d13c 5a73 093c
000001a0: 3c92 5238 7175 6b3d e732 e6bd df2b f13c
000001b0: d5ae 203f 559c 6e3d 4000 81bd b66e 293c
000001c0: cd3f d9bd 136e 3f3d 6481 f4bc 1ea1 25bd
000001d0: 6147 3dbe 0f91 c83d d76d cd3c e59c 2d3d
000001e0: d909 113d 7e32 4c3e 6a34 923c 998d 1a3d
000001f0: e6cf a73d 2cb2 f13c dc0e 17be 9ae6 12bc
00000200: 7ab1 c43e db7c 363d 5d8a d53d db1c 403d
00000210: d201 c3bc 0a13 d9bd ad0f 40be be7d 2d3d
00000220: aec3 893d ac49 dfbd ddc0 043d adf8 483d
00000230: 70af a1bd 8ddf c83d 84ee 14bc f91c 773e
00000240: 29bb 83be 21ef febd 4322 8e3c dd24 993c
00000250: 8571 853d 026d 64be c901 0b3d cf73 93bd
00000260: dd38 1b3c 7a8c 913e 5f3f 4e3c 2021 fe3a
00000270: 7443 8e3b 0e97 e03c 4a75 cf3c ed22 02bd
00000280: b3b6 9d3c 3228 3bbe 6260 4f3d 5741 1a3d
00000290: 6edc 423d ff49 833e f7ce 633d 48c4 383d
000002a0: bd5c 9f3d 6719 33bd 0e17 08bd a345 5b3d
000002b0: 9583 a23d c614 9e3e 80f4 68bb fd78 073d
000002c0: f09a a9bd 17e3 6abe 29d9 e83e 7ec4 333d
000002d0: 0454 843c b09e 9b3c 0fdb 293f ca3d 533d
000002e0: 025f 633d ffc6 f6bc de89 ed3c b4e3 143c
000002f0: b010 b13d 473f b6bd c8ed 1a3c b3f1 e23c
00000300: c91b 4b3d 91d4 e5bc 8f72 5b3d d9b2 c63c
00000310: ca1f 3ebc bcee 11bc 699b c43c d93c 0fbe
00000320: 18df a13b 3062 49bc 6444 733d eb06 12bd
00000330: 6506 543d 2ca7 413e 061b 753b 3254 6c3d
00000340: 3af1 10be 4189 f1bc 72e4 603d a074 7ebb
00000350: ba45 b7bc 570f 77bd a45f c83d 04d9 78bc
00000360: d1d8 933c fb49 0d3d 11cb 343d 3f65 1cbb
00000370: 71a5 5b3d 922a 323e be1b 193d 6e6f f13c
00000380: 17d6 dc3c 7b12 5b3c d860 523d 03f8 313d
00000390: 7579 503c c8c5 10bd 9a0e 203d 8c16 a23c
000003a0: 40eb 643a f6d8 2c3c 4f85 2a3d 6426 a03c
000003b0: 30d6 00bd 060f 9b3c 581e eebc cce0 3cbc
000003c0: 80a1 273a f939 9f3c f319 2dbd e3b3 433e
000003d0: eb01 1c3e 5068 04be b46c abbd 7746 203e
000003e0: 256f f33c a9c1 2b3d d3b4 6f3c e259 093d
000003f0: c289 1b3d a8ea 66bc 3aa2 c03c f851 4ebd
-0.042581074 -0.019985367 0.049170632 0.057844516 -0.10715606 0.15383191 0.0053587966 -0.010794402
0.02418534 0.13013086 -0.13866787 0.034927774 0.039636046 0.034148276 0.014366939 -0.11470988
-0.09288059 0.35892296 0.470845 0.14899792 0.03788614 0.014878662 0.00598637 0.02252964
0.0075807483 -0.023990175 0.018687177 0.17935243 -0.08470716 -0.012949078 0.024014214 0.19042525
0.008430528 0.011654225 0.33912277 -0.104459725 0.12688078 -0.02556615 -0.026913142 0.03376596
0.021792931 0.024523038 -0.09040443 -0.036776066 0.066860646 0.23173183 0.372077 0.017296286
0.046564203 -0.12843207 0.0018392523 0.030448595 0.0068364674 -0.0037893131 0.038776536 0.053336974
0.046555366 -0.12607367 0.024677267 -0.18490377 -0.056333315 0.43868798 -0.030329157 0.041339587
-0.03148601 0.099402964 0.024890741 -0.051977165 0.051772416 0.1222123 0.2679486 0.2930979
0.25925547 0.030032676 -0.004502202 -0.21276616 -0.036920972 0.03322852 0.047433157 -0.066710465
0.23198113 0.01703552 0.107791215 0.044871207 -0.026746862 -0.04646399 0.12569462 0.025886133
0.0429943 0.016792389 0.021063652 0.25969678 -0.0080891745 0.19132131 0.034166362 0.04057331
0.020578407 0.1269898 0.2348306 0.011974395 -0.13445672 0.019489588 0.025558783 0.008389318
5.0204093e-05 0.057485048 -0.112401776 0.029439865 0.6276677 0.05825456 -0.06298876 0.010341337
-0.10607872 0.046735834 -0.029846855 -0.040436856 -0.1848426 0.09793293 0.02507679 0.042385954
0.035409782 0.19941136 0.017847259 0.037732694 0.0819395 0.029503904 -0.14751762 -0.0089661125
0.38416654 0.044552665 0.10426781 0.04690252 -0.023804579 -0.105993345 -0.1875598 0.042356245
0.06726776 -0.10902724 0.03241049 0.04906528 -0.0789479 0.09808264 -0.00909007 0.24132146
-0.2572873 -0.12447954 0.017350322 0.018694336 0.06515793 -0.22307208 0.03393725 -0.07199823
0.0094740065 0.28427488 0.012588351 0.0019388534 0.004341537 0.027415778 0.025324482 -0.03177159
0.019252157 -0.18277052 0.050629027 0.03765997 0.0475735 0.25642392 0.0556173 0.045109063
0.0778136 -0.043725397 -0.03322511 0.053533208 0.079352535 0.30875224 -0.0035546124 0.033074368
-0.08281505 -0.2293819 0.4547818 0.04388856 0.016153343 0.018996567 0.6634988 0.0515726
0.05551053 -0.030124186 0.028996404 0.009087492 0.08645761 -0.08898788 0.0094561055 0.027703142
0.049587045 -0.028055461 0.05357605 0.024255203 -0.011604259 -0.008907016 0.023999887 -0.13988055
0.004939925 -0.012291476 0.059391394 -0.03565113 0.05176391 0.18911427 0.003740014 0.057697482
-0.1415452 -0.029484393 0.054905362 -0.0038826838 -0.022372115 -0.060317364 0.09783867 -0.015188459
0.018047722 0.03449438 0.04413897 -0.0023864058 0.053624574 0.17399052 0.037379973 0.02947208
0.026957555 0.013371105 0.05136189 0.043449413 0.01272427 -0.03534487 0.039076425 0.019786142
0.0008732565 0.010549774 0.04163104 0.019549556 -0.031454265 0.018928062 -0.029067203 -0.011528205
0.000639461 0.019436823 -0.042261075 0.1911159 0.15235107 -0.12930417 -0.08370343 0.1565188
0.029716084 0.041932736 0.014630514 0.033532985 0.037973173 -0.014094032 0.023514856 -0.05037114
