dqn/models/dqn_LunarLander-v2_255.5_2024-05-31_11-39-38.pth (torch, 23034 bytes, 6 tensors)

fc1.weight f4 [64, 8]
000000 3f 0a 21 3d a9 b1 15 3e 56 9e 79 3c 9d 2c 3d be
       0.039316412 0.14618553 0.015235504 -0.1847405
000010 97 b2 c3 be 8f 5b 6a be 18 08 66 3e 59 8e 6d be
       -0.3822219 -0.2288649 0.22464025 -0.23198833
000020 d2 50 f8 3e e5 e2 8a 3f 4a d1 35 3f d9 ec 46 3f
       0.4849916 1.0850493 0.71022475 0.7770515
000030 a8 d7 92 be 28 65 ed be 1d f8 8f be af 6c aa 3e
       -0.28680158 -0.4636624 -0.28118983 0.33286044
000040 3a 2d ea be e7 c1 e6 be 89 63 a7 bf f1 10 e4 3f
       -0.4573763 -0.4506981 -1.3077251 1.781767
000050 81 73 07 bf bb 79 74 3d c8 51 06 3e 5e dd d4 3c
       -0.5291062 0.059686404 0.13117135 0.025984462
000060 95 d3 ab 3e ef 70 fa bd 33 58 c1 3f 8c 11 15 be
       0.33559862 -0.122285716 1.5105041 -0.14557475
000070 fe c3 07 bd cf ed 0f bf b9 a1 2a bf 31 bf 5c 3f
       -0.033145897 -0.5622224 -0.6665302 0.86229235
000080 cf 27 4d be c3 41 9a bf 90 5e c0 3e c6 d5 1d bf
       -0.20034717 -1.2051319 0.37572145 -0.6165432
000090 e1 6a 7f bf b4 f4 0e bf 4e 20 c1 3c 70 51 a3 3e
       -0.9977246 -0.5584214 0.023574974 0.3189807
0000a0 d1 f9 eb be 6a 29 43 3f 94 af 25 bf 91 d5 55 be
       -0.46089032 0.7623507 -0.64721036 -0.2088225
0000b0 2f 93 a7 3f d6 43 ba 3e b4 f3 30 3e b7 4f ab 3e
       1.3091792 0.3637988 0.17280465 0.33459255
0000c0 9e e8 93 3e 3d 1a 70 be 83 98 dd bd cc 2b f6 39
       0.2888841 -0.23447509 -0.10820105 0.00046953408
0000d0 8d b0 75 be 8a 03 8f bf 40 33 40 bf 01 a5 ab 3d
       -0.2399313 -1.1172955 -0.750782 0.08381081
0000e0 96 ef 18 3e ab 67 f6 3e 19 39 2e 3e 25 57 48 3e
       0.14935145 0.48125967 0.17013969 0.19564493
0000f0 24 52 96 be fb b4 87 bf 7d 7b df be db cb 61 3f
       -0.29359543 -1.0602106 -0.43648902 0.88201684
000100 79 58 e8 3e 00 e0 94 3f df f8 be be 00 bc 26 3e
       0.4538 1.1630859 -0.3729925 0.16282654
000110 ad a8 78 bf 73 9a 0a 3f 25 97 7d bf 57 45 1c 3f
       -0.9713238 0.5414192 -0.99058753 0.61043304
000120 2c 07 bd 3f 24 e6 43 3d 24 4e 47 3f a9 9d 66 3d
       1.4767814 0.0478269 0.7785361 0.0563027
000130 0d 67 c6 3e 7d ab db 3e 5c 5b ce 3e c7 e2 e9 be
       0.38750497 0.42904273 0.40304077 -0.4568083
000140 74 83 24 bf a3 36 ec 3e 57 5e 78 bf 54 f9 88 3e
       -0.6426308 0.46135435 -0.9701895 0.26752722
000150 a8 18 22 be a7 8b cb 3b 44 f1 2c bf be 70 40 3f
       -0.15829718 0.006211716 -0.6755564 0.7517203
000160 08 f1 41 3a 32 43 0b 40 f1 82 bb 3e c5 58 c2 bf
       0.0007398282 2.1759763 0.36623338 -1.518334
000170 e7 a9 29 bf 82 58 b9 be da c2 94 3e 5e 42 a1 3d
       -0.66274875 -0.3620034 0.2905491 0.07873987
000180 8f 37 ab bf cb b3 0c bf 90 59 66 bf 4c 68 9f 3c
       -1.337633 -0.5496184 -0.8998041 0.019458912
000190 48 3e e4 3d 95 bb 0e be 19 95 6b 3e 7f 54 85 be
       0.11144692 -0.13938744 0.23006095 -0.26041028
0001a0 49 c5 5f be cc b6 68 bf 1b df 52 3f 67 cd fe 3e
       -0.21852602 -0.90903926 0.8237168 0.49766085
0001b0 33 34 2e 3f e6 53 ff 3e 64 6b fd be e7 a3 0a 3f
       0.680484 0.49868697 -0.49495995 0.54156345
0001c0 ed bb a3 be 8b 8d 49 3e 73 34 57 3d 01 24 05 3f
       -0.31979313 0.196829 0.052540254 0.5200806
0001d0 8d fc 00 3f 10 a4 c0 3f 3e 1f 2c bf c7 21 21 bf
       0.5038536 1.5050068 -0.6723517 -0.62942165
0001e0 e3 a3 07 be 99 05 da 3e 5a a4 de 3e 58 01 86 3f
       -0.13246112 0.42582396 0.43484765 1.046916
0001f0 d3 c1 de 3c 0f ed fa be 45 e9 0a 3e 44 b4 81 be
       0.027192032 -0.49008986 0.13565548 -0.25332844
000200 04 4f 35 bf 15 6c d7 bd 37 62 5d 3f 35 29 36 3f
       -0.70823693 -0.10518662 0.8647799 0.71156627
000210 11 70 fd be 5f 28 01 3d 13 d3 3c 3e e3 16 14 bf
       -0.49499562 0.03153264 0.18439893 -0.5784742
000220 3b 5f e8 3d f5 a7 25 bf 64 15 da 3d ce f4 b0 bf
       0.11346289 -0.6470941 0.10648611 -1.3824708
000230 61 c6 4d 3e 3f cd 57 3e 31 e1 2b 3e 42 12 93 3e
       0.20095207 0.21074389 0.16785122 0.28724867
000240 65 31 88 3d 81 0d 8e 3f 12 97 f8 3e 44 df 33 be
       0.06650046 1.1097871 0.48552758 -0.17565638
000250 e1 70 9c be 59 b2 67 bf 2b d9 0d bf 89 b2 92 3f
       -0.3055487 -0.9050651 -0.554095 1.1460735
000260 78 82 2f bf 1e 44 0c 3f a3 3d 34 be f7 c9 16 be
       -0.68558455 0.5479144 -0.17601638 -0.14725481
000270 62 58 90 bc bd 52 3a 3e ad 84 3b 3f 1f 9d 42 3f
       -0.01762027 0.18195625 0.7324932 0.76021
000280 47 b0 ee be 11 37 38 3c 61 4a 0e bf 3a 98 4e 3f
       -0.46618864 0.011243598 -0.55582243 0.8070103
000290 54 22 4d 3f 14 68 0a 3f a1 b2 5c bf e6 ca 32 3e
       0.80130506 0.5406506 -0.86210066 0.17460212
0002a0 76 35 4d 3f be f7 6b 3f 2b 4e 6b 3f c0 bf 06 3f
       0.801597 0.921749 0.9191615 0.5263634
0002b0 1b a3 2f bf fa ef 4c be 9a 30 3a 3d 12 87 15 be
       -0.68608254 -0.20013419 0.045456506 -0.14602306
0002c0 ba 0f df bd 76 1b 90 3d 5a ca e7 be 7d c4 ce be
       -0.108916715 0.07036488 -0.4527157 -0.40384284
0002d0 9b 01 03 3e 44 8d 53 bf c0 5b 92 3d c6 66 6c 3e
       0.12793581 -0.8263743 0.07146406 0.2308608
0002e0 a9 73 fc 3d f5 1f e7 bc 32 a5 38 3e 39 0b 3d be
       0.12326748 -0.02821348 0.18031767 -0.18461312
0002f0 50 0b 41 bf d0 19 ca bd 88 c7 16 c0 ac 76 ef 3e
       -0.75407887 -0.098682046 -2.3559284 0.46770227
000300 e7 58 df bd e8 fa 84 be 42 ec 18 bf b3 77 b0 3d
       -0.10905629 -0.25972676 -0.597355 0.08616581
000310 74 06 8d 3e bc 2b 31 bd 6a 9a 85 3f 5e be ca 3e
       0.27543986 -0.0432546 1.0437748 0.39598364
000320 cf 9c b5 3e 01 8f 23 be 5f 52 32 3f 03 cd 0b 40
       0.35471198 -0.1597252 0.6965694 2.184388
000330 57 48 3d be a9 6a 3a 3f 9b c2 5c bf 8d f0 8e 3d
       -0.18484627 0.72819 -0.86234444 0.06979475
000340 cc ae 12 3f c0 21 e9 3c 4c 22 8f 3f 11 fd 99 bf
       0.5729797 0.028458476 1.1182342 -1.2030355
000350 7c c1 9c 3d 33 7c 1b bf e1 8f 12 be 8b 77 0d c0
       0.07654092 -0.6073639 -0.14312698 -2.2104213
000360 57 7b 69 3e ef 38 7e be 9c 6d 04 3f d3 a1 68 bf
       0.22800957 -0.24826406 0.5172975 -0.90871924
000370 71 a9 12 be 8d a7 bf 3e 26 33 1c 3f 2b 14 a8 3d
       -0.1432245 0.3743252 0.61015546 0.08206972
000380 92 d3 45 3e 93 0e c1 be 2c 2a 85 3e 71 cd 15 bf
       0.19318989 -0.37706432 0.26008737 -0.58516604
000390 15 14 33 bf ea 25 9d bf 9a bf 52 bf ea 4a b8 3e
       -0.6995252 -1.2277195 -0.8232361 0.35994655
0003a0 fb fa e3 3e 57 17 da bd a8 22 14 3f d9 bf 19 3e
       0.4452742 -0.10648983 0.5786538 0.1501459
0003b0 d1 df 2a be cf d0 65 3f 22 d8 5b 3f 94 02 dc 3d
       -0.16686942 0.8977174 0.8587667 0.10742679
0003c0 30 d4 1c 3e dd 34 23 3d fa 0c f5 3d a5 9c b5 bf
       0.15315318 0.039845336 0.11965366 -1.4188429
0003d0 ce 58 75 3e c7 74 c6 3d 63 df 92 be bf 37 6c 3d
       0.23959658 0.09690242 -0.28686056 0.05767035
0003e0 9d c7 c5 3e a8 4b 1f 3f a6 c9 84 3e 9b ee 37 be
       0.38628855 0.6222482 0.25935096 -0.17962115
0003f0 1d d7 09 3f 76 87 97 bf ad af 3d be e4 f4 41 3f
       0.5384386 -1.1838214 -0.18524046 0.757643

fc1.bias f4 [64]
000000 59 2b 82 3f fa 78 87 3f 62 99 63 bf 64 e2 94 bd
       1.0169479 1.0583794 -0.8890592 -0.07269743
000010 1a ca 90 3e 8d 84 31 3f ca d9 ab 3e 9c e8 47 be
       0.2827919 0.6934288 0.33564597 -0.19522327
000020 76 53 c0 3d ac 2e 01 3e f1 b8 b6 3e ee 52 70 3e
       0.09390919 0.1261546 0.35687974 0.23469135
000030 8f 4a 2a 3e af 12 5e 3f 51 80 a0 3e 84 ff 69 3f
       0.16630004 0.8674726 0.31347898 0.9140551
000040 b0 ee 6c 3f fc 08 b8 be 84 f3 0b 3d a5 cd 46 be
       0.9255171 -0.35944355 0.03416778 -0.19414385
000050 de 1f bc 3e 99 e4 92 be e8 bb 49 3e 91 41 e8 bd
       0.36743063 -0.2869003 0.19700587 -0.11340631
000060 3b 57 2c 3f 9e d1 c8 3e 1e af 67 bd ee a5 da bd
       0.67320603 0.39222425 -0.05656349 -0.1067618
000070 6b cd 3f be 61 44 d6 3e ac b7 f6 3e e7 35 78 3f
       -0.18730704 0.41849044 0.48187006 0.9695725
000080 0d 17 e7 3e 63 a7 13 3f 2c 24 36 ba d1 92 fe 3d
       0.45134774 0.57677287 -0.0006948139 0.12430347
000090 a0 ce 91 3e 46 a1 8e 3f a1 55 04 3f 32 bb df 3e
       0.28477955 1.1142967 0.5169316 0.43697506
0000a0 21 6a ad 3e c8 ae d7 bd f0 52 88 3e 7d c7 92 3e
       0.33870032 -0.10531384 0.26625776 0.28667822
0000b0 24 fb fa bd d0 dc 51 3f f5 57 12 3f 38 e4 01 be
       -0.122549325 0.8197756 0.5716546 -0.12684715
0000c0 bc a2 6c 3f 98 f7 f5 bd 2a ab a1 bc 97 5d 17 3f
       0.9243581 -0.120101154 -0.019734938 0.5912718
0000d0 6b a6 3c 3f 2f 19 32 3f 41 c4 25 3e 72 45 d2 be
       0.73691434 0.6956968 0.16188146 -0.41068608
0000e0 de 95 f9 3e 87 fc ce 3e 8a 60 93 bf b5 18 cd be
       0.48747152 0.40427038 -1.1513836 -0.40057912
0000f0 6e ac bb bb 61 2d 2c bf ad 6d 65 3f a4 29 53 3f
       -0.0057273423 -0.6725674 0.89620477 0.82485414

fc2.weight f4 [64, 64]
000000 8e 7c b3 3d 0e 83 92 bf ba 14 22 bf 41 5b c2 3e
       0.08763991 -1.1446245 -0.63312876 0.37960246
000010 bf 91 fd 3e 43 78 8f 3c 9d ba 07 3e cf d5 86 3f
       0.49525258 0.0175134 0.13254781 1.0533999
000020 cb 72 bc bf 76 d4 ca 3e 43 d2 33 be 4d 54 08 3f
       -1.4722532 0.3961522 -0.17560677 0.5325363
000030 68 72 fe 3e 16 6a 06 bf 68 53 81 3e 15 25 97 bf
       0.4969666 -0.52505624 0.25258946 -1.1808192
000040 f9 05 a5 be f6 3a c1 3e ec 80 b6 be e0 1d a5 3e
       -0.3223112 0.37740296 -0.35645235 0.32249355
000050 f9 49 1b 3e d5 b6 28 3f 5d 0c 93 3e e9 44 1f 3f
       0.15164937 0.6590398 0.2872037 0.62214524
000060 a6 46 c1 bd 84 b2 e6 3e 66 1a e9 3c 45 2f a7 3e
       -0.09437303 0.45058072 0.02845497 0.3265325
000070 3c 25 c0 3e 70 70 e7 bd 6d cb 8a 3d bf b5 ab be
       0.37528408 -0.113007426 0.06777082 -0.335371
000080 19 79 ba 3e 38 20 00 3e 68 b8 7a be 02 e7 d4 3e
       0.36420515 0.1251229 -0.24484408 0.41582495
000090 4e 14 8b 3e b4 c6 8c be 5e da 8a 3d 74 a0 b5 3e
       0.2716393 -0.27495348 0.067799315 0.3547398
0000a0 58 28 ec 3d 52 74 25 3f aa d5 0c 3e 0b 08 ff 3d
       0.115311325 0.64630616 0.13753381 0.12452706
0000b0 a3 4d a6 3e 4d 53 1e 3e b2 ad 19 be 43 bc c7 3d
       0.32481107 0.15461464 -0.15007666 0.09752705
0000c0 7e 5a 15 bd 10 e2 08 40 ef 62 d0 3d 73 18 7b 3e
       -0.036463253 2.1387978 0.1017512 0.24521045
0000d0 c8 a0 1f 3e 2f 6f 2c 3e e5 7a fb 3d aa 3b d5 3e
       0.15588677 0.16839288 0.122793 0.41647083
0000e0 e1 60 9d bc ea 9d 98 3e 08 e7 c8 bf 0b 2b de 3e
       -0.019211235 0.2980798 -1.5695505 0.43392214
0000f0 10 bc 8f 3e c9 2d c5 bf a8 e0 a1 3e ad 46 1d 3d
       0.28073168 -1.5404598 0.31616712 0.03839748
000100 59 53 fa 3e 7c fd 93 3e eb 47 01 40 28 85 cd bf
       0.48891714 0.2890433 2.0200145 -1.6056261
000110 79 45 ed bd 62 0b d8 bf dd 15 80 be 53 f6 c0 bf
       -0.115855165 -1.6878474 -0.2501668 -1.5075172
000120 6e 6f c2 3e 66 94 df bf 54 b5 40 3f 0e 42 4c 3f
       0.3797564 -1.7467163 0.75276685 0.7978829
000130 66 35 a9 be 1a ab ed bf c2 5c b7 c0 86 a1 c3 3e
       -0.33048552 -1.8567841 -5.730073 0.3820917
000140 19 8a 07 3e e0 33 50 be b5 c3 c9 3e 48 40 4f bf
       0.13236274 -0.20332289 0.39407125 -0.8095746
000150 d3 63 37 c0 8b 4b 6a bf 72 a1 fb 3e d9 14 d5 bc
       -2.8654678 -0.9152152 0.4914661 -0.026010917
000160 14 8a ca bd f1 d0 89 3f f7 ad 2d 3f 9d fe 55 be
       -0.098896176 1.0766889 0.67843574 -0.20897909
000170 41 7e 51 bf 46 37 93 bf 8c 13 f0 3d 22 38 8b 3e
       -0.81833273 -1.1501243 0.11722478 0.27191263
000180 4c cb c3 bf 50 b1 33 3e 1a 75 e8 3f 6e c5 1a c0
       -1.5296416 0.17548108 1.8160737 -2.4183002
000190 5d f7 20 bf d8 bf 18 3f 0f 7f 14 3e 65 3d 2a 3e
       -0.62877446 0.5966773 0.14501594 0.16624983
0001a0 6f 47 ad bf 63 60 f0 be 33 67 25 bf e0 04 ab 3d
       -1.3537425 -0.46948537 -0.64610595 0.08350539
0001b0 ab 7c 80 c0 71 02 1e 3f 61 9e 5d bf e1 80 31 bf
       -4.0152183 0.61722475 -0.8656979 -0.6933728
0001c0 2d 0d 3d 3f 85 b2 b3 3f 04 56 4a bc 90 ff c7 be
       0.7384823 1.4038855 -0.012349609 -0.39062166
0001d0 67 19 cd 3e 12 5c f0 bf 55 de 95 3d ce 7a cf 3e
       0.40058443 -1.8778098 0.07317797 0.4052338
0001e0 6e 92 5f 3c 99 42 b2 bf c7 10 b4 bd d2 1a 86 3c
       0.013645751 -1.3926574 -0.087922625 0.01637021
0001f0 ba 0c 99 be fc 1e 54 be 82 32 f5 3e 56 49 67 3f
       -0.29892522 -0.20714945 0.47890097 0.90346277
000200 7f ae 58 3e ac 48 c6 3e 4d dd bf 3f 83 9d 03 3f
       0.21160315 0.3872732 1.4989411 0.5141222
000210 f8 94 d2 bd cf 68 15 3e 65 1f 1d 3e b0 81 41 3d
       -0.1028232 0.14590763 0.15344007 0.04724282
000220 ef 4f 0a 3f 81 06 63 bd 62 57 f0 3e f4 6c 14 be
       0.5402822 -0.055426124 0.46941668 -0.14494687
000230 80 87 ee be b3 1a 29 3f 7f 6f 67 be 08 ba 56 3f
       -0.46587753 0.66056365 -0.22601126 0.8387761
000240 b3 23 6e 3e e6 4c a8 be 5d 37 c8 3e d1 7f 3d bd
       0.23255806 -0.3287117 0.3910474 -0.046264473
000250 1e 44 0b be 83 e9 74 bf 5f d4 b2 3e 05 af 29 bf
       -0.13600203 -0.9566881 0.3492765 -0.66282684
000260 6c 0f c2 3c bc 59 c0 bd 86 0a ad 3e 14 3d db be
       0.023688994 -0.093921155 0.3379709 -0.42820036
000270 1e 10 0f be 16 8a cc bd a4 4b e0 3d 85 4d 11 3f
       -0.13970992 -0.09987275 0.10951927 0.5675891
000280 22 1e 25 be 4b 59 e5 3d 66 89 f9 3f 31 d0 cb bc
       -0.16124776 0.11198672 1.9495056 -0.024879547
000290 84 8d ac 3d f0 c7 18 3f 6a d3 3a 3e ad 57 27 3e
       0.084254295 0.5968008 0.1824471 0.1634204
0002a0 fe 2b db be 06 5c ad be cd 3c ac be 79 7e 3f 3e
       -0.42807 -0.3385927 -0.33640137 0.18700589
0002b0 dc 6b 49 bf 59 19 a6 3e be bf 12 3e 21 70 aa be
       -0.78680205 0.32441214 0.14330956 -0.33288673
0002c0 06 7a e8 3e 3a 05 70 bf ce 7f 03 be 26 b1 9b 3d
       0.45405596 -0.93757975 -0.12841722 0.07602148
0002d0 6d 0f f2 3c 25 2e 68 3e 82 2b 60 bd a2 1e a2 be
       0.029548371 0.22673853 -0.054728992 -0.31663996
0002e0 06 f6 a2 bd e2 da d2 3c 52 16 8b 3f ea b4 df be
       -0.079570815 0.025739137 1.0866187 -0.43692714
0002f0 60 da a3 be e5 b6 a2 bd 12 d2 e6 bc 49 a6 d6 3e
       -0.32002544 -0.079450406 -0.028176341 0.4192374
000300 46 a4 d0 bb 0f 87 b5 bc 4e d6 d7 3d 2c 00 6a bd
       -0.006367239 -0.022159128 0.10538922 -0.05712907
000310 f4 d5 cf bb d5 0b 01 bd 02 1e 9f bd c8 ef fa 3c
       -0.006342644 -0.031505425 -0.077693954 0.030631915
000320 9e 0e 47 bc 21 63 3d 39 3e e7 5b 3d fe 73 13 be
       -0.012149481 0.00018061373 0.053687327 -0.14399716
000330 55 29 07 bd fd 13 45 3d 29 a3 9e 3d 00 4c c6 b9
       -0.0329984 0.048114765 0.07745964 -0.00037822127
000340 a2 8d 2c be a3 9c 5d 3d eb 49 62 3c 30 15 ab 3c
       -0.16850904 0.05410446 0.013811569 0.020884126
000350 93 d3 91 bd 4f db 3f bd 10 04 56 bc 60 44 47 3d
       -0.07120433 -0.04684001 -0.013062492 0.04864919
000360 98 6d 20 be 81 f8 96 3d af 24 e7 bd 9b 3e b7 bd
       -0.15666807 0.07371617 -0.11286294 -0.08947488
000370 00 da 2b bc f9 00 91 bd 9b 60 21 be 3f cc d2 bd
       -0.010488987 -0.07080264 -0.15759508 -0.10292863
000380 b8 72 ae 3d ec 3a 3a 3d f2 d8 9d 3d b6 32 9d bd
       0.085179746 0.04546635 0.07707395 -0.07675688
000390 23 28 9e 3d bf 11 c6 bd c8 b9 f7 3c 46 e6 0b be
       0.07722499 -0.096713535 0.030239955 -0.13662061
0003a0 2a be 95 3d 58 05 dc bd 6f eb 40 3c ef 97 46 3d
       0.073116615 -0.10743207 0.011774882 0.04848474
0003b0 3e a4 b8 bc 79 e8 72 3d 54 00 a1 3d 2a 53 21 bc
       -0.022539254 0.059303734 0.07861391 -0.009846488
0003c0 fa 00 2f be 9f 93 d8 bd 1a 6c e2 bd d7 46 cb bc
       -0.17090216 -0.105750315 -0.11055775 -0.024814053
0003d0 de 7d ed 3b 66 8d 4a 3d a7 94 bc bc 7f d0 79 3d
       0.0072476706 0.049451254 -0.023020102 0.060989853
0003e0 e5 85 03 bd 3f 16 7d bd 44 c2 92 bd ab aa b0 bc
       -0.032110114 -0.061788794 -0.071659595 -0.021565756
0003f0 6a 2b 15 be de 94 b0 bd 64 47 72 3d 6e c8 10 bd
       -0.14567342 -0.08622144 0.059150115 -0.035347395

fc2.bias f4 [64]
000000 30 e8 70 bd 99 69 9c 3e 1b f1 f6 3e 3e be 50 3d
       -0.05881518 0.30549315 0.48230824 0.05096268
000010 40 48 f7 3e 1a 2a a2 3e 9f 6c a0 3c e7 4b a5 3d
       0.4829731 0.31672746 0.019583045 0.08071118
000020 c9 50 95 3e 49 9e 3e 3e 40 35 dc 3d 06 7b ce 3e
       0.29163197 0.18615068 0.10752344 0.40328234
000030 ad 8d 23 bd eb 07 15 3e 4c 8d bc 3b c5 cb 13 3e
       -0.039930034 0.14553802 0.0057541486 0.144332
000040 c0 77 9d be a2 97 94 3e 19 34 b0 bc 36 cf dd 3e
       -0.30755424 0.29021937 -0.021509217 0.43322152
000050 6d 17 8e 3d fb 66 54 3e d6 fa a9 3e 84 fe e4 3d
       0.06938062 0.20742409 0.33199185 0.111813575
000060 0e 45 ba bd 40 df bc 3e 08 b7 1e 3e 2b 02 16 3e
       -0.090952024 0.36889076 0.15499508 0.14649265
000070 98 17 c7 3d b8 5d 89 3e 73 ed e8 3d 29 51 86 3e
       0.09721297 0.26829314 0.11373415 0.26233795
000080 f9 1f 38 3e 24 91 34 bf c7 4a a6 3e a9 ce 23 3e
       0.17980947 -0.70533967 0.32478926 0.15996803
000090 0e c4 e6 3d a8 ba 97 bd c2 de 0b 3f 92 69 37 3e
       0.11267863 -0.07408649 0.54636776 0.17911366
0000a0 d6 75 9d 3e 3e 41 c3 bd 3f 30 1d 3e bf 25 bd bd
       0.30753964 -0.09533928 0.15350436 -0.09235715
0000b0 44 7a 25 3d d0 d7 17 3f 80 3b b7 3a 6b 67 2c 3d
       0.040399805 0.5931368 0.0013979524 0.042090815
0000c0 1a 86 14 3f 55 07 1d 3d 64 17 4a 3e 7f 62 04 3f
       0.5801712 0.03833707 0.19735485 0.51712793
0000d0 34 64 6a 3e bb 00 55 3f bc ea d0 bc be d4 2d bd
       0.22889787 0.8320424 -0.025502555 -0.042439215
0000e0 c7 d7 7e bd d8 61 6a bc 5c b0 c4 3e 7d d5 93 3f
       -0.0622175 -0.014305554 0.38415802 1.1549526
0000f0 d1 4a 63 be 9d dd 54 3f cf eb 7b 3e c0 83 f5 3e
       -0.22196509 0.83150655 0.24601673 0.4795208

fc3.weight f4 [4, 64]
000000 39 15 cd be 78 d4 5b 40 42 59 b6 3e b5 54 1b bd
       -0.40055254 3.434843 0.35614973 -0.03792258
000010 9a ab 0c 40 ad 5a d6 3f 9c 97 89 3f bc a8 aa 3d
       2.1979737 1.6746422 1.0749393 0.08332965
000020 c7 02 ab 3f e3 ae f1 be 74 32 17 40 b4 e1 89 bf
       1.3360223 -0.4720374 2.3624544 -1.0772004
000030 6c e7 7a be 8e 4b 14 bf 67 f4 02 bf 24 86 f5 be
       -0.24502343 -0.5792779 -0.5115418 -0.47953904
000040 34 fd 94 3f f2 4a c8 be e1 b2 38 be de 5a 69 bf
       1.1639771 -0.3911968 -0.18036987 -0.9115428
000050 46 0b cf be 42 9a 0f bf a5 32 12 40 44 e5 ad be
       -0.40438288 -0.56094754 2.284341 -0.33963978
000060 f1 3c 20 bf 18 dc c7 bf d8 66 0d bf fc 9d 21 bf
       -0.6259299 -1.5614042 -0.5523505 -0.6313169
000070 9f 06 b2 bf 99 7c 02 bf 3b 99 4a bf d8 ee c6 be
       -1.3908271 -0.5097137 -0.7914006 -0.38854098
000080 dd eb df be 66 37 ae be e1 b7 a4 3f a3 14 cf bf
       -0.43734637 -0.3402664 1.2868615 -1.6178173
000090 16 c1 b7 be 65 2d f2 bb 99 fc d2 3f 22 10 f4 be
       -0.358895 -0.0073906654 1.6483337 -0.47668558
0000a0 a4 0e a3 be fd a5 d4 be 55 97 92 be 49 7a d9 be
       -0.31847107 -0.4153289 -0.28631082 -0.4247611
0000b0 8b a4 3b bf eb 45 f7 3f 08 d0 c6 3c 79 ff b8 be
       -0.7329795 1.9318212 0.024269119 -0.3613241
0000c0 62 06 a4 bf 1b 89 17 bf b2 6c 06 40 ee 96 90 3f
       -1.2814448 -0.5919358 2.1003842 1.129606
0000d0 b5 3d 4e 3f be 95 fe bf 44 b5 1d bd 55 43 2d 3f
       0.8056291 -1.9889448 -0.038502946 0.67680866
0000e0 14 2d 0d 3d e6 ed 0d bf f0 81 0d bf e4 8b 1d 40
       0.034466818 -0.5544113 -0.55276394 2.4616632
0000f0 d6 d4 b7 be 58 99 26 3f 26 83 0e bf 23 dc 2a 40
       -0.35904568 0.65077734 -0.55668867 2.669686
000100 ea fb 01 bf 90 d8 67 40 03 3e 62 3e 89 f6 b6 3c
       -0.50775015 3.622593 0.22093968 0.022334354
000110 45 df e1 3f b8 b3 b6 3f f2 4f 06 3f 1e 42 84 3d
       1.7646261 1.4273596 0.52465737 0.06457923
000120 ec 79 c2 3f 82 1f da be ab 7d 05 40 c9 c2 cb be
       1.5193458 -0.42602164 2.0857952 -0.39797047
000130 2c 42 b9 be 24 25 a7 be b4 a7 02 bf a1 cd e4 be
       -0.36183298 -0.32645524 -0.51037145 -0.44688132
000140 e3 f5 ba 3f 9d 6e ac be b6 74 0c bf fd 61 30 bf
       1.4606289 -0.3367814 -0.54865587 -0.6889952
000150 a9 c5 24 bf 70 bf 07 bf 90 09 16 40 a2 b6 6c be
       -0.64364105 -0.53026485 2.3443336 -0.23116544
000160 89 64 be be 8b 53 b9 bf 70 38 d3 be d3 86 0e bf
       -0.37186077 -1.447862 -0.41253996 -0.55674475
000170 0f c8 a7 bf e9 30 38 bf 9b af 26 bf 6d da c0 be
       -1.3107928 -0.7194963 -0.651117 -0.37666646
000180 3f 6e d9 be b2 e3 97 bf 0b 48 20 3d ef db c0 bf
       -0.42466924 -1.1866362 0.039131206 -1.5067118
000190 bc 5e 47 bf 80 59 e7 3d 4a ff d7 3f d9 6e 23 bf
       -0.7787893 0.11296368 1.6874783 -0.63841015
0001a0 2a aa 28 bf 72 eb c6 be c9 18 21 be f8 12 1a bf
       -0.6588465 -0.38851506 -0.15732111 -0.60185194
0001b0 39 f3 e2 be c4 e6 d3 3f 56 b8 ae bd 76 f0 55 be
       -0.4432619 1.6554799 -0.08531253 -0.2089251
0001c0 3c 25 ba bf 73 31 16 bf b9 9e 03 40 01 64 ce 3f
       -1.4542613 -0.58669204 2.0565627 1.6124269
0001d0 40 9c 01 40 f0 cf fe bf 16 eb f7 bd b8 e1 33 3f
       2.0251617 -1.9907207 -0.12105386 0.70266294
0001e0 b3 7d b1 bc 75 70 9c be ea 8a 4b bf e7 f5 18 40
       -0.021666383 -0.30554548 -0.7950884 2.3900087
0001f0 85 ba cd be 0b 15 81 3f 07 73 d1 be 71 62 0e 40
       -0.40181366 1.0084547 -0.4090807 2.2247584
000200 82 f5 a5 be 7b 7c 61 40 4f 08 62 3f ca ce a9 3b
       -0.3241387 3.5232227 0.8829393 0.005182122
000210 51 dc 17 40 9a 9a bf 3f 0b 76 f4 3f e3 93 6c bd
       2.372822 1.4969056 1.9098524 -0.057758223
000220 cb e9 df 3f bb 04 a4 be cd d8 15 40 61 9f 4f bf
       1.7493223 -0.3203486 2.3413575 -0.8110257
000230 7a 76 28 bf 06 3a f4 be 01 c6 1e bf 9a 21 82 be
       -0.6580578 -0.47700518 -0.6202088 -0.2541626
000240 11 16 d6 3e fe 63 ab be 96 e0 21 bf f4 38 97 bf
       0.4181371 -0.33474725 -0.63233316 -1.1814256
000250 6c 54 17 bf b4 f2 12 bf 10 2a 0f 40 ba 05 0a bf
       -0.5911319 -0.57401586 2.2369423 -0.5391499
000260 ea 9d 41 bf e4 80 04 c0 b6 ee b1 be f8 9e e8 bd
       -0.7563158 -2.0703669 -0.34752434 -0.11358446
000270 d3 18 8b bf fd 6f 01 bc bd 3d 2c bf 0f 1e 88 be
       -1.0866951 -0.007900235 -0.67281705 -0.26585433
000280 28 3a b7 be 0b 15 2f bf 00 5e 02 40 50 b5 0d c0
       -0.35786557 -0.68391484 2.0369873 -2.2141914
000290 9b 73 08 bf d0 35 18 bd 59 e5 07 40 76 0f 6f be
       -0.533014 -0.037160695 2.1233733 -0.23345742
0002a0 89 e8 0f bf 73 9b ab be 51 ee 0d bf 99 69 24 bf
       -0.56214195 -0.33517036 -0.55441767 -0.6422363
0002b0 19 f1 af be 4f 4e eb 3f b8 e6 a4 bc 0a d4 ad be
       -0.3436363 1.8383273 -0.020129547 -0.33950835
0002c0 fb d2 f5 bf b6 c0 db be 2d 24 dd 3f 3a 9e 14 40
       -1.9205011 -0.42920464 1.7276665 2.3221574
0002d0 ee de 5a 3f b9 75 dd bf e8 4a 14 3d 3e 8e 09 3f
       0.85496414 -1.7301551 0.03620425 0.5373267
0002e0 b2 74 aa bd 33 3c 0d bf 74 99 de be 97 6c af 3f
       -0.08323039 -0.5516998 -0.4347645 1.3705014
0002f0 60 e6 5f bf 9a 90 f3 3f fe 77 d0 be 45 62 04 40
       -0.874609 1.9028504 -0.40716547 2.068498
000300 09 e5 01 bf 9c d3 47 40 c9 19 cf 3e 00 7c 9f 3d
       -0.50740105 3.1222906 0.4044936 0.07787323
000310 2e e8 29 40 a6 8f fa 3f 46 33 a2 3f f4 55 25 3c
       2.6547961 1.9575088 1.2671897 0.010091294
000320 f1 bf bf 3f 82 21 e5 be 27 0b 25 40 b1 c3 91 bf
       1.4980451 -0.44752127 2.5788057 -1.1387845
000330 25 41 0f bf 57 89 00 bf dd 23 fc be 59 9c 14 bf
       -0.5595878 -0.50209564 -0.49246112 -0.5805107
000340 29 d5 4e 3f d7 9d 15 bf 64 f0 3d bd 41 77 8d bf
       0.80794007 -0.5844397 -0.046371832 -1.1052018
000350 12 5a e3 be 18 b1 b5 be 78 8e 0e 40 47 96 ff be
       -0.44404656 -0.35486674 2.2274456 -0.4991934
000360 b1 5f 1d bf 6e 62 a8 bf 20 11 dc be b6 08 0b bf
       -0.6147414 -1.3155038 -0.42981815 -0.54310167
000370 6f 4c db bf 9d 01 2d bf 44 f9 ae be 45 81 0c bf
       -1.7132701 -0.67580587 -0.3417455 -0.5488475
000380 90 47 29 bf 23 17 1c 3c da 3a 10 40 c8 90 09 c0
       -0.6612482 0.009527001 2.253592 -2.1494617
000390 e4 00 d7 be e2 b3 de 3b 15 03 09 40 1b 8f 22 bf
       -0.41992867 0.006796346 2.140813 -0.6349961
0003a0 f5 52 d0 bc a3 d3 2b bf c1 fa 27 bf 1e f5 e1 be
       -0.025430182 -0.67119807 -0.65616995 -0.44132322
0003b0 37 64 2b bf dd 1f f7 3f 14 50 da bd 63 43 14 bf
       -0.6694979 1.9306599 -0.10659805 -0.57915324
0003c0 bb 0f 86 bf 1b f2 8a be 17 0e ef 3f e9 c9 0c 3f
       -1.047355 -0.27137837 1.8676175 0.5499559
0003d0 5f af a9 3e f5 f3 f2 bf f9 0e 45 3c d1 5f 3a 3f
       0.3314161 -1.89807 0.012027496 0.72802454
0003e0 48 06 54 3d 62 1c 10 bf 99 45 e7 bd d7 fd 24 40
       0.051763803 -0.5629331 -0.112925716 2.5779932
0003f0 3d e9 0f bf a5 ba 03 3f be 2e 05 bf 3c 41 ed 3f
       -0.5621527 0.5145667 -0.5202445 1.8535533

fc3.bias f4 [4]
000000 be d1 c3 bd de 4f e0 bc 5e 9b 61 3d 70 5d ef bd
       -0.095614895 -0.027381834 0.05507981 -0.11687744
